…
        "id": "9XDdH-_Vk4y9",
        "outputId": "f3e91273-4d0b-4858-82e1-96ff26e3334c"
      },
      "source": [
        "model.summary()"
      ],
      "execution_count": 8,
      "outputs": [
        {
          "output_type": "stream",
          "name": "stdout",
          "text": [
            "Model: \"sequential\"\n",
            "_________________________________________________________________\n",
            "Layer (type)                 Output Shape              Param #   \n",
            "=================================================================\n",
            "conv2d (Conv2D)              (None, 148, 148, 6)       168       \n",
            "_________________________________________________________________\n",
            "max_pooling2d (MaxPooling2D) (None, 74, 74, 6)         0         \n",
            "_________________________________________________________________\n",
            "conv2d_1 (Conv2D)            (None, 72, 72, 16)        880       \n",
            "_________________________________________________________________\n",
            "max_pooling2d_1 (MaxPooling2 (None, 36, 36, 16)        0         \n",
            "_________________________________________________________________\n",
            "flatten (Flatten)            (None, 20736)             0         \n",
            "_________________________________________________________________\n",
            "dense (Dense)                (None, 120)               2488440   \n",
            "_________________________________________________________________\n",
            "dense_1 (Dense)              (None, 84)                10164     \n",
            "_________________________________________________________________\n",
            "dense_2 (Dense)              (None, 1)                 85        \n",
            "=================================================================\n",
            "Total params: 2,499,737\n",
            "Trainable params: 2,499,737\n",
            "Non-trainable params: 0\n",
            "_________________________________________________________________\n"
          ]
        }
      ]
    },
    {
      "cell_type": "code",
      "metadata": {
        "colab": {
…
